…
r.next()\nprint(img_tensor.shape)\ngrid_tensor = torchvision.utils.make_grid(img_tensor, nrow=16, padding=2)\ngrid_img = transforms.ToPILImage()(grid_tensor)\ndisplay(grid_img)\n</code></pre><p>请注意，上述代码中的transform，我为了打印图片只使用了transform.ToTensor()输出图片，结果如下所示：<br>\n<img src=\"https://static001.geekbang.org/resource/image/f0/f2/f0b5f4ed8c24fbb81c7b7c71a907a6f2.jpg?wh=546x546\" alt=\"\"></p><p>这里我特别说明一下，因为这个训练集的数据都是32x32的，所以你现在看到的就是原图效果，图片大小并不影响咱们的学习。</p><p>下面我们要做的是修改全连接层，直接print就可以打印出网络结构，代码如下：</p><pre><code class=\"language-python\">print(alexnet)\n输出：\nAlexNet(\n  (features): Sequential(\n    (0): Conv2d(3, 64, kernel_size=(11, 11), stride=(4, 4), padding=(2, 2))\n    (1): ReLU(inplace=True)\n    (2): MaxPool2d(kernel_size=3, stride=2, padding=0, dilation=1, ceil_mode=False)\n    (3): Conv2d(64, 192, kernel_size=(5, 5), stride=(1, 1), padding=(2, 2))\n    (4): ReLU(inplace=True)\n    (5): MaxPool2d(kernel_size=3, stride=2, padding=0, dilation=1, ceil_mode=False)\n    (6): Conv2d(192, 384, kernel_size=(3, 3), stride=(1, 1), padding=(1, 1))\n    (7): ReLU(inplace=True)\n    (8): Conv2d(384, 256, kernel_size=(3, 3), stride=(1, 1), padding=(1, 1))\n    (9): ReLU(inplace=True)\n    (10): Conv2d(256, 256, kernel_size=(3, 3), stride=(1, 1), padding=(1, 1))\n    (11): ReLU(inplace=True)\n    (12): MaxPool2d(kernel_size=3, stride=2, padding=0, dilation=1, ceil_mode=False)\n  )\n  (avgpool): AdaptiveAvgPool2d(output_size=(6, 6))\n  (classifier): Sequential(\n    (0): Dropout(p=0.5, inplace=False)\n    (1): Linear(in_features=9216, out_features=4096, bias=True)\n    (2): ReLU(inplace=True)\n    (3): Dropout(p=0.5, inplace=False)\n    (4): Linear(in_features=4096, out_features=4096, bias=True)\n    (5): ReLU(inplace=True)\n    (6): Linear(in_features=4096, out_features=1000, bias=True)\n  )\n)\n</code></pre><p>可以看到，最后全连接层输入是4096个单元，输出是1000个单元，我们要把它修改为输出是10个单元的全连接层（CIFR10有10类）。代码如下：</p><pre><code class=\"language-python\"># 提取分类层的输入参数\nfc_in_features = alexnet.classifier[6].in_features\n\n# 修改预训练模型的输出分类数\nalexnet.classifier[6] = torch.nn.Linear(fc_in_features, 10)\nprint(alexnet)\n输出：\nAlexNet(\n  (features): Sequential(\n    (0): Conv2d(3, 64, kernel_size=(11, 11), stride=(4, 4), padding=(2, 2))\n    (1): ReLU(inplace=True)\n    (2): MaxPool2d(kernel_size=3, stride=2, padding=0, dilation=1, ceil_mode=False)\n    (3): Conv2d(64, 192, kernel_size=(5, 5), stride=(1, 1), padding=(2, 2))\n    (4): ReLU(inplace=True)\n    (5): MaxPool2d(kernel_size=3, stride=2, padding=0, dilation=1, ceil_mode=False)\n    (6): Conv2d(192, 384, kernel_size=(3, 3), stride=(1, 1), padding=(1, 1))\n    (7): ReLU(inplace=True)\n    (8): Conv2d(384, 256, kernel_size=(3, 3), stride=(1, 1), padding=(1, 1))\n    (9): ReLU(inplace=True)\n    (10): Conv2d(256, 256, kernel_size=(3, 3), stride=(1, 1), padding=(1, 1))\n    (11): ReLU(inplace=True)\n    (12): MaxPool2d(kernel_size=3, stride=2, padding=0, dilation=1, ceil_mode=False)\n  )\n  (avgpool): AdaptiveAvgPool2d(output_size=(6, 6))\n  (classifier): Sequential(\n    (0): Dropout(p=0.5, inplace=False)\n    (1): Linear(in_features=9216, out_features=4096, bias=True)\n    (2): ReLU(inplace=True)\n    (3): Dropout(p=0.5, inplace=False)\n    (4): Linear(in_features=4096, out_features=4096, bias=True)\n    (5): ReLU(inplace=True)\n    (6): Linear(in_features=4096, out_features=10, bias=True)\n  )\n)\n</code></pre><p>这时，你可以发现输出就变为10个单元了。</p><p>接下来就是在CIFAR-10上，使用AlexNet作为预训练模型训练我们自己的模型了。首先是数据读入，代码如下：</p><pre><code class=\"language-python\">transform = transforms.Compose([\n&nbsp; &nbsp; transforms.RandomResizedCrop((224,224)),\n&nbsp; &nbsp; transforms.ToTensor(),\n&nbsp; &nbsp; transforms.Normalize(mean=[0.485, 0.456, 0.406], std=[0.229, 0.
…
